_________________________________________________________________
Layer (type)                 Output Shape              Param #   
=================================================================
dense_1 (Dense)              (None, 256)               25856     
_________________________________________________________________
leaky_re_lu_1 (LeakyReLU)    (None, 256)               0         
_________________________________________________________________
dense_2 (Dense)              (None, 512)               131584    
_________________________________________________________________
leaky_re_lu_2 (LeakyReLU)    (None, 512)               0         
_________________________________________________________________
dense_3 (Dense)              (None, 1024)              525312    
_________________________________________________________________
leaky_re_lu_3 (LeakyReLU)    (None, 1024)              0         
_________________________________________________________________
dense_4 (Dense)              (None, 784)               803600    
=================================================================
Total params: 1,486,352
Trainable params: 1,486,352
Non-trainable params: 0
_________________________________________________________________
done
